aaplforecastModel.pth (torch, 204442 bytes, 9 tensors)

lstm.weight_ih_l0 f4 [256, 1]
-0.07184767 0.14514971 0.06469954 -0.044951398 0.08139222 -0.053266354 0.01334011 0.13878965
0.038500197 0.051932804 -0.052484244 0.049314924 -0.1557621 0.13930432 0.06283017 0.13849373
0.08840822 0.09165733 -0.026629258 0.16213824 -0.04352412 0.044012923 0.002058166 0.028306175
0.04656071 -0.08017772 -0.037573155 0.059826557 0.040005878 0.11187343 -0.014717652 -0.024196452
0.10541877 -0.09930039 0.0007132862 0.095907025 0.105772905 0.11992683 0.12947765 0.01842936
-0.082701065 0.034287196 0.10418986 0.06045328 -0.044065136 0.12709582 -0.07777275 -0.036811005
-0.080570586 0.10147588 0.015031554 0.039149173 -0.029421775 -0.0219996 -0.119857796 0.093875915
-0.020860057 -0.014000958 -0.080759086 0.14924069 -0.032238226 0.09310382 0.10999445 0.026204789
-0.11459422 -0.016205553 -0.061681964 -0.02904927 0.045671344 0.07731443 -0.015708601 0.04939516
-0.11268483 0.08654532 0.14134443 0.13610396 -0.050621506 -0.06495381 -0.018296635 0.03597402
0.04546181 -0.03271683 -0.002907959 -0.06225704 0.15442884 0.049966145 0.09003981 0.028611999
0.12818497 -0.020387882 -0.011274971 0.11023146 0.108148046 0.029878655 0.009834442 -0.088626236
0.12390722 0.022068376 -0.053999357 0.025066152 -0.035440292 0.049711384 0.0499986 0.037614085
0.043240722 0.105641395 0.15390815 -0.051779505 0.010551435 0.09444455 -0.011399636 0.039143108
0.10810191 -0.080710106 -0.0006587457 -0.051833753 0.081483275 0.10031506 0.0858404 0.08811159
0.049004227 0.12577604 0.023993466 -0.0020263365 -0.06862422 0.05935964 0.019780144 0.12429967
-0.051277127 -0.1312222 0.14924023 -0.11243097 -0.04632565 -0.05128235 -0.017392952 -0.08894832
-0.063749544 0.05156326 0.056067556 -0.15653051 -0.0217822 -0.06348306 0.077500395 -0.026176564
0.052214675 -0.058865078 -0.12052326 0.14591831 0.05869497 0.093549326 -0.139208 -0.08728444
0.022521563 0.07448293 0.072791226 0.023111966 0.07794041 -0.0838838 -0.071428664 0.105407864
-0.017434807 0.08044205 -0.04227275 0.01881541 -0.0014848236 0.14341208 -0.12545219 0.0121008055
-0.0777308 -0.11986233 -0.12955636 0.07928684 0.06933515 0.15861027 -0.11139289 -0.11891305
0.0023300853 0.10572679 0.06603693 0.14186957 0.16115226 0.11163537 0.08324178 -0.14961961
-0.13187118 -0.14817299 0.0777733 0.014083248 0.049303584 -0.08513011 0.03566452 0.012655781
0.032049324 0.05703018 -0.030608287 0.0028482631 0.08284616 0.0836341 -0.027854074 0.1164031
-0.053666025 -0.048805714 0.049525294 0.10916773 -0.036192752 -0.0062397746 0.054655872 0.05772052
-0.020062374 0.11124992 0.07563534 -0.0037933826 -0.027575308 0.008108806 -0.04180029 0.032821205
-0.083896585 -0.03585526 0.13451673 -0.06383846 0.057672355 0.10434645 -0.07460751 0.12309938
-0.05644415 0.062351335 0.061393205 0.11715131 -0.02358994 0.13873181 0.1635817 -0.053982183
-0.059990343 -0.10322014 0.04181906 0.07580743 -0.06184741 0.10840686 0.07301877 0.092804335
-0.04236603 0.0666047 0.116140485 -0.06055262 0.051712736 0.071490824 -0.07132812 0.084923394
-0.07217885 -0.036009535 0.120843254 -0.07474315 0.05038272 0.11840225 0.056306347 0.057824116
00000000: df24 93bd 20a2 143e 3181 843d f51e 38bd
00000010: f7b0 a63d d22d 5abd 7a90 5a3c e01e 0e3e
00000020: 62b2 1d3d 7eb7 543d b8f9 56bd 72fe 493d
00000030: 1a80 1fbe cba5 0e3e 1bad 803d 4dd1 0d3e
00000040: 5e0f b53d d7b6 bb3d 9a25 dabc 9107 263e
00000050: 5946 32bd e546 343d 4ce2 063b 5ae2 e73c
00000060: 71b6 3e3d 3734 a4bd 4fe6 19bd b10c 753d
00000070: 34dd 233d e61d e53d 4f22 71bc a337 c6bc
00000080: cce5 d73d 015e cbbd d4fb 3a3a e76a c43d
00000090: 779f d83d 339c f53d ca95 043e 2bf9 963c
000000a0: 2d5f a9bd bb70 0c3d 7e61 d53d dc9d 773d
000000b0: a57d 34bd 6825 023e 5247 9fbd 23c7 16bd
000000c0: 3102 a5bd 96d2 cf3d e846 763c e25a 203d
000000d0: ef05 f1bc 8138 b4bc 0178 f5bd 0442 c03d
000000e0: b6e2 aabc 4664 65bc 0565 a5bd 8dd2 183e
000000f0: 3b0c 04bd 37ad be3d c544 e13d 6dab d63c
00000100: 60b0 eabd 82c1 84bc 3aa6 7cbd bcf8 edbc
00000110: e011 3b3d 0757 9e3d 53af 80bc 9452 4a3d
00000120: 4ec7 e6bd ac3e b13d 98bc 103e d65e 0b3e
00000130: 7f58 4fbd 8106 85bd d3e2 95bc 7e59 133d
00000140: 2a36 3a3d 1502 06bd 7593 3ebb 3d01 7fbd
00000150: 9822 1e3e 4da9 4c3d cb66 b83d b663 ea3c
00000160: ec42 033e 7d04 a7bc a8ba 38bc 08c1 e13d
00000170: b97c dd3d 15c4 f43c a420 213c ac81 b5bd
00000180: 12c3 fd3d bdc8 b43c 6e2e 5dbd 8857 cd3c
00000190: d729 11bd 2a9e 4b3d 55cb 4c3d 3a11 1a3d
000001a0: 2f1d 313d 845a d83d 199a 1d3e bf16 54bd
000001b0: eddf 2c3c 256c c13d 8ac5 3abc 8654 203d
000001c0: 8964 dd3d 574b a5bd adaf 2cba a14f 54bd
000001d0: b4e0 a63d fb71 cd3d 17cd af3d d973 b43d
000001e0: a8b8 483d 6fcb 003e f28d c43c 49cc 04bb
000001f0: db8a 8cbd 1823 733d f809 a23c d390 fe3d
00000200: f707 52bd 1d5f 06be 6ed2 183e 3542 e6bd
00000210: f7bf 3dbd 710d 52bd aa7b 8ebc 892a b6bd
00000220: 1f8f 82bd ff33 533d 18a7 653d 8949 20be
00000230: 9670 b2bc 6803 82bd 87b8 9e3d 3c70 d6bc
00000240: 0edf 553d 821c 71bd e6d4 f6bd 9c6b 153e
00000250: 236a 703d ca96 bf3d 8b8c 0ebe 2fc2 b2bd
00000260: 247f b83c 828a 983d 9113 953d 4e55 bd3c
00000270: 399f 9f3d 45cb abbd 3149 92bd 14e0 d73d
00000280: 71d3 8ebc cdbe a43d 3126 2dbd c622 9a3c
00000290: 6a9e c2ba 9eda 123e 8a76 00be 7542 463c
000002a0: 5331 9fbd 627a f5bd 6caa 04be 2461 a23d
000002b0: 96ff 8d3d bb6a 223e f521 e4bd af88 f3bd
000002c0: 58b4 183b 4a87 d83d 5f3e 873d 4246 113e
000002d0: 1905 253e 16a1 e43d ab7a aa3d e235 19be
000002e0: 3d09 07be a9ba 17be 9c47 9f3d 6cbd 663c
000002f0: 8ef2 493d b258 aebd f614 123d 315a 4f3c
00000300: 2746 033d 7a98 693d 3bbe fabc eda9 3a3b
00000310: 3fab a93d 5b48 ab3d 3a2e e4bc c064 ee3d
00000320: e8d0 5bbd 80e8 47bd 09db 4a3d 5593 df3d
00000330: da3e 14bd 0677 ccbb d6de 5f3d 5a6c 6c3d
00000340: d959 a4bc 00d7 e33d b3e6 9a3d 669a 78bb
00000350: 9de5 e1bc ccda 043c c836 2bbd 876f 063d
00000360: f9d1 abbd f7dc 12bd c1be 093e bdbd 82bd
00000370: d939 6c3d 97b3 d53d d2cb 98bd 871b fc3d
00000380: fb31 67bd 1d64 7f3d 7177 7b3d 07ed ef3d
00000390: b13f c1bc b60f 0e3e f681 273e 6c1c 5dbd
000003a0: 6fb8 75bd 1565 d3bd 764a 2b3d ed40 9b3d
000003b0: b653 7dbd 6a04 de3d dd8a 953d 3310 be3d
000003c0: 0188 2dbd 0c68 883d 10db ed3d 0606 78bd
000003d0: bcd0 533d c869 923d 7a14 92bd 51ec ad3d
000003e0: 81d2 93bd bc7e 13bd ab7c f73d f012 99bd
000003f0: 1c5e 4e3d e17c f23d 7ca1 663d fbd8 6c3d

lstm.weight_hh_l0 f4 [256, 64]
0.11238864 -0.026489355 -0.09551788 0.06907399 -0.013402692 -0.08619456 0.035994947 -0.11604531
-0.07429951 0.0008578693 -0.048868377 -0.054910973 -0.002089491 0.11345907 -0.0053895526 0.057645615
-0.10151447 -0.06655221 0.036134567 0.07992553 -0.07108612 0.057575747 0.0772593 -0.109139174
0.115557246 -0.074671336 0.025706358 0.13621537 0.07935511 -0.088372976 0.13035807 0.047961287
-0.10892261 -0.08053363 -0.01337182 -0.059158757 0.0456353 0.047492042 -0.03421311 -0.04640321
-0.1140895 -0.020357972 0.09936074 -8.5554384e-05 -0.072920635 -0.1063276 0.020023787 0.028972004
0.07522872 -0.101772286 0.07651723 0.11200407 0.11061201 -0.08190148 -0.101331875 0.07667609
0.07636846 -0.06114934 0.047594987 -0.036303997 0.09117989 0.042031176 0.07548718 -0.04761062
0.15426779 -0.041649252 0.120613426 -0.03615254 0.09849255 -0.09713243 0.03024781 0.027169319
-0.019848524 -0.0481975 -0.022905093 -0.012158909 -0.06041746 0.12954976 0.13881223 -0.1551509
0.011769641 0.12564689 -0.0457014 0.1437034 -0.082451425 0.012610753 -0.12543589 -0.12559023
0.010958825 -0.05169148 0.14922854 0.11928135 0.045263458 0.075169854 0.10744409 0.09995171
-0.041273296 0.030527912 0.004125222 0.0838529 -0.052279074 0.13044457 -0.16321443 0.0074921064
-0.07357482 0.06191027 -0.15598847 -0.028392669 0.11737392 0.13860725 0.033488777 0.022354538
-0.0040560653 -0.0025701565 0.116488114 -0.024525557 0.057926986 -0.04838908 -0.016220754 -0.081004746
-0.04861718 -0.14446512 -0.05779369 0.1016184 -0.0739222 0.044248223 -0.060455084 -0.0518798
0.09968294 -0.080926135 0.04860832 0.028939726 0.07347698 0.0034297665 0.020305157 0.034973267
0.05463914 0.1431299 0.10737302 -0.076217696 -0.010825661 0.024371903 -0.006994779 0.053027533
0.11867304 -0.08797661 -0.033665743 0.09039628 0.011390844 0.08811599 0.014864619 0.038765527
0.110677704 0.118741564 0.052333556 -0.08109152 -0.08473934 -0.06932227 0.087016776 -0.017207883
0.07498573 0.047075428 0.0606399 -0.059795044 -0.14214972 -0.038698293 -0.0659472 -0.05840215
-0.08571832 -0.11318903 0.005626568 0.017953554 -0.0072870348 0.12512791 0.0078083044 0.025234846
-0.024021635 -0.0006632006 0.13034634 0.07933986 0.0069791856 0.035547573 -0.032562654 -0.07235746
-0.04978622 0.00089023146 -0.017084142 0.15300688 0.09135784 0.012403999 0.112145424 0.01723495
-0.06511914 -0.15525495 0.10562161 -0.116523236 0.099278815 0.044035833 0.03512453 -0.056349345
0.027396755 -0.08232467 0.16763373 -0.07670363 -0.08032296 0.10330907 -0.068278894 0.046152942
0.043971915 -0.08969456 -0.03519091 0.032377265 0.040320184 0.12577504 -0.06885235 -0.015032704
0.13734864 0.14312889 -0.060387302 0.0012603337 -0.010377929 -0.15265298 -0.04528809 0.07180305
-0.045517165 -0.10670637 0.07481951 0.0034221986 -0.06125908 0.15241404 0.019621857 -0.13836665
-0.04391969 -0.056674875 0.035937592 0.10635966 0.04958861 0.052763265 -0.13201047 -0.041212346
0.0622024 0.090451494 0.15745987 0.1129706 0.08999631 0.066489205 0.02778448 0.055698037
-0.08251092 0.03416788 0.061229322 -0.020160891 0.06824504 0.060871802 0.12580152 0.024834882
00000000: 042c e63d 3400 d9bc e19e c3bd aa76 8d3d
00000010: f796 5bbc c686 b0bd 706f 133d 2aa9 edbd
00000020: 572a 98bd a2e2 603a 352a 48bd 54ea 60bd
00000030: d8ef 08bb 3b5d e83d d89a b0bb cf1d 6c3d
00000040: d2e6 cfbd 864c 88bd d701 143d ffaf a33d
00000050: 9a95 91bd 8cd4 6b3d 203a 9e3d 5c84 dfbd
00000060: 47a9 ec3d 49ed 98bd 2496 d23c 0b7c 0b3e
00000070: ef84 a23d e4fc b4bd 967c 053e 0e73 443d
00000080: d112 dfbd d1ee a4bd 7a15 5bbc 7450 72bd
00000090: 15ec 3a3d 0487 423d 0c23 0cbd 4b11 3ebd
000000a0: c1a7 e9bd c3c5 a6bc a57d cb3d a96b b3b8
000000b0: 6a57 95bd 49c2 d9bd ed08 a43c b256 ed3c
000000c0: 8411 9a3d fd6d d0bd 11b5 9c3d 6462 e53d
000000d0: 8d88 e23d f7bb a7bd 1687 cfbd 5b08 9d3d
000000e0: 1167 9c3d bb77 7abd f6f2 423d 80b3 14bd
000000f0: 86bc ba3d e228 2c3d 0699 9a3d 5a03 43bd
00000100: 60f8 1d3e 6898 2abd 2c04 f73d b014 14bd
00000110: 76b6 c93d 5eed c6bd 41ca f73c 3192 de3c
00000120: 5f99 a2bc be6a 45bd 76a3 bbbc 2936 47bc
00000130: 4c78 77bd b1a8 043e cb24 0e3e e1df 1ebe
00000140: 74d5 403c 94a9 003e 6431 3bbd fc26 133e
00000150: 4bdc a8bd 559d 4e3c 4472 00be ba9a 00be
00000160: a58c 333c 72ba 53bd 5ecf 183e c849 f43d
00000170: 2d66 393d a7f2 993d a60b dc3d 7bb3 cc3d
00000180: 300e 29bd ac15 fa3c df2c 873b 12bb ab3d
00000190: 9522 56bd 4393 053e af21 27be 5880 f53b
000001a0: 65ae 96bd a095 7d3d 71bb 1fbe be97 e8bc
000001b0: bd61 f03d 0fef 0d3e 872b 093d dd20 b73c
000001c0: bee8 84bb 1270 28bb 5291 ee3d d2e9 c8bc
000001d0: d944 6d3d a133 46bd 63e1 84bc d1e5 a5bd
000001e0: cf22 47bd aaee 13be 14b9 6cbd 4f1d d03d
000001f0: 8664 97bd a03d 353d c09f 77bd ea7f 54bd
00000200: 9226 cc3d 9abc a5bd 8519 473d 0113 ed3c
00000210: 197b 963d efc5 603b 0057 a63c 2140 0f3d
00000220: 4acd 5f3d a590 123e 63e6 db3d 0618 9cbd
00000230: 1d5e 31bc 96a7 c73c 7634 e5bb 6633 593d
00000240: da0a f33d 152d b4bd 17e5 09bd af21 b93d
00000250: aaa0 3a3c 2876 b43d bb8a 733c 9ac8 1e3d
00000260: feaa e23d c72e f33d b65b 563d 5013 a6bd
00000270: d28b adbd d6f8 8dbd da35 b23d 8cf7 8cbc
00000280: 1e92 993d 2ad2 403d 8b61 783d a6eb 74bd
00000290: b28f 11be 1a82 1ebd 530f 87bd 1837 6fbd
000002a0: 168d afbd a6cf e7bd 135f b83b 5513 933c
000002b0: 14c8 eebb 8821 003e cedc ff3b 4fb9 ce3c
000002c0: 05c9 c4bc a4da 2dba 8379 053e f07c a23d
000002d0: a7b1 e43b 559a 113d 6b60 05bd 2630 94bd
000002e0: a3ec 4bbd 6c5e 693a 0bf4 8bbc d6ad 1c3e
000002f0: d219 bb3d 253a 4b3c 80ac e53d 4f30 8d3c
00000300: 2f5d 85bd 27fb 1ebe 2550 d83d bca3 eebd
00000310: b152 cb3d eb5e 343d bdde 0f3d 92ce 66bd
00000320: 296f e03c d699 a8bd 2da8 2b3e cb16 9dbd
00000330: 5d80 a4bd b593 d33d ced5 8bbd de0a 3d3d
00000340: e51b 343d c8b1 b7bd 5824 10bd 069e 043d
00000350: c726 253d 2ccb 003e 7602 8dbd bb4b 76bc
00000360: 1fa5 0c3e 6190 123e ad58 77bd c831 a53a
00000370: 3008 2abc 1051 1cbe 0180 39bd 7a0d 933d
00000380: 3570 3abd df88 dabd f93a 993d f746 603b
00000390: cdea 7abd 6d12 1c3e 04be a03c fdaf 0dbe
000003a0: 22e5 33bd ea23 68bd 4c33 133d 18d3 d93d
000003b0: 6d1d 4b3d 4b1e 583d c12d 07be 47ce 28bd
000003c0: f2c7 7e3d a23e b93d 293d 213e 215d e73d
000003d0: fc4f b83d 7e2b 883d 479c e33c a023 643d
000003e0: 7cfb a8bd 9ef3 0b3d 99cb 7a3d 7428 a5bc
000003f0: 0ec4 8b3d b654 793d 1dd2 003e 8672 cb3c

lstm.bias_ih_l0 f4 [256]
0.05503035 0.15611807 -0.055071954 0.12540534 0.03605684 -0.0758937 -0.021577064 -0.044879373
-0.018780513 -0.020493096 -0.007954361 0.025671087 0.094041556 0.00037811368 0.051710524 0.019174509
-0.06871149 -0.007088757 -0.059617117 0.05027325 0.04910508 0.039139297 -0.044132378 0.045811664
-0.0001104209 -0.008554658 0.13483015 0.09838658 0.12723345 -0.07451483 -0.063997604 0.12433538
-0.021998325 0.08652752 -0.08390048 -0.068045296 0.11995204 0.0349563 0.11746923 0.009379048
0.047619015 0.081110545 0.043603867 0.15342359 -0.07910487 0.029342875 0.07137701 0.040328555
-0.01683756 0.080220796 -0.02802615 -0.01681463 -0.035348576 0.12120082 -0.09671641 -0.0010470537
0.12699606 0.037947968 0.029569598 0.031617917 -0.0075970846 -0.041010834 0.06791836 0.07651224
-0.059450164 0.055575836 0.077400096 -0.071888715 0.0775211 0.10919691 0.08545254 0.05762813
-0.068592004 0.08227406 0.04732598 0.0026034154 0.012066468 -0.023369048 0.11304778 0.011600432
0.10651014 -0.09263721 -0.06354521 0.09844508 0.041202098 0.021344893 -0.08334446 0.10812104
-0.08965934 0.06598636 0.07269968 -0.05248821 0.107866816 0.08269635 0.10705474 0.11942677
-0.0251924 0.042857375 0.072059415 0.022154737 0.06869584 -0.0530482 0.114607334 0.05610617
0.08075348 -0.10472736 0.12933193 0.041247275 0.07494129 -0.06874246 0.049035273 0.14457537
0.056641508 -0.08836165 0.133899 0.09359583 0.10205126 0.08547679 0.018031089 0.020760546
-0.08521794 0.009710495 -0.08632402 0.04471982 0.073224716 0.01384764 -0.0881121 0.05693313
-0.02163057 -0.058814883 0.08213848 -0.08424013 -0.07687191 -0.11373551 0.1328431 -0.10396561
0.1287741 0.11565881 -0.009942158 -0.055122957 0.056219738 0.07630623 0.015170069 -0.052364107
0.13357826 0.050628126 -0.11790667 0.008110976 0.06270324 -0.07327043 -0.03611828 -0.02627639
0.09278771 0.021073343 0.09967463 0.090631984 -0.031528346 0.09135183 -0.049542375 0.0048675924
0.011420821 -0.1010855 -0.03167362 0.0661688 0.017228529 0.098935954 -0.119506784 -0.016333755
0.042351887 0.055865858 -0.089769356 0.09076001 -0.03925324 -0.070310235 -0.09680084 -0.037571993
-0.047824893 0.12674591 -0.0041811233 0.09459838 0.11003431 -0.13380137 -0.073061354 -0.07988377
0.10081504 -0.063875146 -0.1410336 0.10629751 -0.03070618 -0.008558801 0.009671584 -0.07313176
-0.09654393 -0.0733475 -0.084698506 0.13227409 -0.03637112 -0.10655868 -0.070174865 -0.066744946
0.06671792 0.012557229 0.08484024 0.14723817 -0.01360326 -0.06558499 -0.008647807 0.09712381
-0.017559659 0.09964161 0.08167135 0.107633255 -0.09189415 0.0050891917 0.12168359 -0.002279353
0.010223652 -0.040496703 -0.022714335 -0.052690998 0.028256632 0.01893739 0.023007669 0.025604377
0.11171975 0.030063888 0.12683105 0.0651026 0.05080437 0.07429416 0.10837594 0.0022164704
-0.028682282 -0.06546129 0.07019992 -0.008961832 -0.003875717 0.037835993 0.049505167 0.06883235
0.08733174 0.15936807 0.09876659 -0.022477102 -0.037168317 0.08826573 0.061846808 -0.08773192
0.11365053 -0.06411332 -0.07065215 -0.0012209873 0.12317459 -0.037177503 -0.065510884 0.062683836
00000000: 8167 613d 6add 1f3e 2193 61bd 426a 003e
00000010: 56b0 133d 286e 9bbd 62c2 b0bc 6fd3 37bd
00000020: 97d9 99bc 23e1 a7bc 0253 02bc 2c4c d23c
00000030: dc98 c03d 8f3d c639 6ace 533d dc13 9d3c
00000040: 9cb8 8cbd ce48 e8bb 1431 74bd 53eb 4d3d
00000050: 6922 493d 8750 203d 27c4 34bd 03a5 3b3d
00000060: c591 e7b8 d628 0cbc ea10 0a3e e77e c93d
00000070: 7c49 023e 3b9b 98bd 2d11 83bd 8ca3 fe3d
00000080: d535 b4bc 5735 b13d 04d4 abbd 555b 8bbd
00000090: 6aa9 f53d 562e 0f3d b593 f03d 94aa 193c
000000a0: 280c 433d 491d a63d f899 323d 131b 1d3e
000000b0: bc01 a2bd 7860 f03c 1c2e 923d 8e2f 253d
000000c0: ecee 89bc cd4a a43d 1997 e5bc d6be 89bc
000000d0: abc9 10bd 2338 f83d 4113 c6bd 4b3d 89ba
000000e0: 410b 023e 546f 1b3d f13b f23c ca81 013d
000000f0: f7f0 f8bb fafa 27bd c818 8b3d 73b2 9c3d
00000100: 0482 73bd 7da3 633d f183 9e3d 643a 93bd
00000110: 62c3 9e3d a1a2 df3d be01 af3d 790b 6c3d
00000120: f779 8cbd 4d7f a83d e3d8 413d 109e 2a3b
00000130: 6fb2 453c 7270 bfbc 9885 e73d bd0f 3e3c
00000140: fd21 da3d 94b8 bdbd fe23 82bd 939d c93d
00000150: 88c3 283d 7cdb ae3c 80b0 aabd 906e dd3d
00000160: 519f b7bd db23 873d 92e3 943d e1fd 56bd
00000170: 47e9 dc3d b45c a93d 843f db3d 0696 f43d
00000180: 4b60 cebc 378b 2f3d e393 933d da7d b53c
00000190: 68b0 8c3d 1249 59bd 40b7 ea3d 95cf 653d
000001a0: 1562 a53d 4c7b d6bd 976f 043e e7f2 283d
000001b0: d27a 993d d9c8 8cbd 36d9 483d 910b 143e
000001c0: ed00 683d f4f6 b4bd d21c 093e 2caf bf3d
000001d0: 4000 d13d 750e af3d efb5 933c 0512 aa3c
000001e0: be86 aebd c518 1f3c a6ca b0bd 212c 373d
000001f0: d7f6 953d 36e1 623c 1e74 b4bd b732 693d
00000200: 9832 b1bc e0e7 70bd 3838 a83d 1786 acbd
00000210: 056f 9dbd 2aee e8bd 0608 083e eceb d4bd
00000220: 5cdd 033e 87de ec3d 6fe4 22bc 9cc8 61bd
00000230: ab46 663d 7146 9c3d e28b 783c bf7b 56bd
00000240: bdc8 083e 705f 4f3d 0d79 f1bd e6e3 043c
00000250: 8e6a 803d cf0e 96bd c3f0 13bd 9541 d7bc
00000260: 7c07 be3d 01a2 ac3c 3622 cc3d 439d b93d
00000270: de23 01bd ab16 bb3d f2ec 4abd 5380 9f3b
00000280: 651e 3b3c ea05 cfbd 33bc 01bd 8283 873d
00000290: d822 8d3c ef9e ca3d f9bf f4bd 5ece 85bc
000002a0: 2c79 2d3d 99d3 643d ffd8 b7bd 62e0 b93d
000002b0: 01c8 20bd d0fe 8fbd 853f c6bd 17e5 19bd
000002c0: 09e4 43bd aec9 013e ce01 89bb ccbc c13d
000002d0: ab59 e13d 3a03 09be 31a1 95bd 1a9a a3bd
000002e0: 1e78 ce3d f9d0 82bd 1d6b 10be 82b2 d93d
000002f0: 878b fbbc 373a 0cbc 9075 1e3c 1bc6 95bd
00000300: d3b8 c5bd 3737 96bd 6976 adbd dc72 073e
00000310: e2f9 14bd 703b dabd d7b7 8fbd 93b1 88bd
00000320: 68a3 883d d6bc 4d3c b8c0 ad3d 9ac5 163e
00000330: 35e0 5ebc 6c51 86bd 88af 0dbc d9e8 c63d
00000340: 46d9 8fbc e710 cc3d 4f43 a73d d36e dc3d
00000350: 0033 bcbd 3cc3 a63b 3f35 f93d 3361 15bb
00000360: 1b81 273c dfdf 25bd 6a13 babc 84d2 57bd
00000370: 747a e73c 9622 9b3c 947a bc3c 45c0 d13c
00000380: 53cd e43d 8b48 f63c 00e0 013e 8354 853d
00000390: 3e18 503d 8927 983d 34f4 dd3d 3442 113b
000003a0: 1bf7 eabc 9210 86bd fac4 8f3d a6d4 12bc
000003b0: beff 7dbb eaf9 1a3d eec5 4a3d faf7 8c3d
000003c0: fcda b23d 6231 233e 2346 ca3d e621 b8bc
000003d0: ce3d 18bd aac4 b43d 1453 7d3d cbac b3bd
000003e0: 9cc1 e83d d84d 83bd 13b2 90bd 8909 a0ba
000003f0: f642 fc3d 7047 18bd 922a 86bd 6260 803d

lstm.bias_hh_l0 f4 [256]
0.079391666 0.15688695 -0.08273304 -0.019047704 0.007868882 -0.08374348 -0.0056266165 -0.064129084
0.06469909 -0.064321555 0.036225572 0.15923147 0.11548489 0.06916774 0.123069786 0.13788843
0.01714689 0.033349447 0.13505642 0.01781848 0.031426743 0.080362014 -0.0936329 0.05692434
-0.10309221 0.0966252 -0.0848999 0.0586356 -0.040518567 0.01756502 0.14130044 -0.08036694
-0.0024492112 -0.09573942 0.0003458083 0.07166547 0.040894367 0.11445372 -0.06934459 -0.063103005
-0.036582246 0.058579 0.036424898 -0.06380529 -0.0070562134 0.058527693 -0.022319509 0.03298825
-0.016553666 -0.043124992 -0.06865247 0.050278097 0.12538393 0.011123238 0.019706288 -0.0048389146
0.08097989 -0.013179864 0.03081919 -0.034617536 -0.07716545 -0.060279414 -0.070578665 0.13213362
0.1380026 0.033208076 0.02522225 -0.0021197177 -0.042665444 0.0404764 -0.081834346 -0.093363285
-0.033644624 -0.03015056 0.019532247 0.13439703 0.0031509541 0.065772206 -0.04398273 0.07883147
0.06769374 0.054282967 -0.02973839 -0.059420116 -0.03684679 0.13363229 -0.05767674 -0.052047715
0.06955034 -0.088373184 0.057619777 -0.080771975 0.06829298 -0.075646296 -0.037381787 -0.081447795
-0.081739925 0.013018712 0.11090494 -0.031175205 0.1337503 -0.09658229 0.07961567 -0.10642792
0.04980794 0.07299361 -0.040359788 0.111857474 0.0070356694 -0.04194889 0.022372719 -0.020140529
-0.057457514 -0.0747852 0.04014639 0.13322343 -0.05705092 -0.07495006 0.07882409 -0.09468524
0.12452343 0.10035142 0.12992853 0.07460716 -0.02974212 -0.011926646 0.014989171 -0.0725805
0.09874611 0.0061388453 0.07099135 0.112783335 0.09960391 -0.061197795 0.06552356 -0.039033324
0.117250904 0.054953888 0.020551478 0.030161297 0.12977056 0.064516075 0.03412054 -0.029491715
-0.04913437 0.05642453 -0.018680293 -0.024698135 0.024703652 0.12482203 -0.029467072 -0.07800725
0.07331363 0.090438135 0.033311218 0.10905937 0.05411894 -0.09934143 0.12790069 -0.09711752
-0.07550469 -0.04278933 -0.120200016 0.13289697 -0.118942924 0.031179432 0.00857706 -0.11842988
-0.050696824 -0.019163985 0.06084307 -0.10425429 0.06082107 0.052521247 -0.09491307 -0.037471633
0.011475465 -0.0972245 0.049331713 -0.069458514 -0.07027602 0.03681705 -0.11362698 -0.07290149
0.078077614 -0.11882066 0.028667225 0.0050725397 0.02037514 0.103938125 0.09554653 0.10218901
-0.102573894 0.12051117 -0.058798417 0.008952144 0.12203787 -0.06607227 0.036901902 -0.06275169
-0.08209726 0.08174159 0.13964432 0.11225037 -0.086544186 -0.0774323 -0.044546034 0.029441759
-0.009096534 0.01686563 -0.04583301 0.09537887 -0.0119404625 0.0040768683 -0.0031791432 0.008338213
-0.0066965553 -0.10122673 0.07781384 -0.011192354 -0.055024188 0.09976883 -0.0053176973 -0.09423329
0.12052386 0.0075381873 0.06062827 0.021808513 -0.07143195 -0.06559579 -0.05459964 -0.039537653
0.09843123 -0.07188429 -0.06881159 -0.043162033 0.042454097 -0.015645217 -0.016488025 -0.08376528
0.13230067 -0.011155317 0.09067068 0.09017869 -0.058578942 0.075655974 0.09695072 0.03985839
-0.01896437 0.11949931 -0.01753606 0.13320403 0.08188299 -0.02778938 0.11362064 0.039033413
00000000: 1998 a23d f9a6 203e f16f a9bd ee09 9cbc
00000010: 7cec 003c b481 abbd 7b5f b8bb 1c56 83bd
00000020: f580 843d 05bb 83bd 4461 143d 930d 233e
00000030: 5883 ec3d d1a7 8d3d 030c fc3d a032 0d3e
00000040: a277 8c3c 6e99 083d 3b4c 0a3e 10f8 913c
00000050: 54b9 003d d794 a43d 9bc2 bfbd 7f29 693d
00000060: 0222 d3bd 6fe3 c53d 00e0 adbd e22b 703d
00000070: ccf6 25bd 84e4 8f3c 10b1 103e 6c97 a4bd
00000080: f282 20bb 0713 c4bd 9b4d b539 59c5 923d
00000090: da80 273d b666 ea3d 8904 8ebd 263c 81bd
000000a0: 44d7 15bd 89f0 6f3d 4632 153d 59ac 82bd
000000b0: cf37 e7bb bcba 6f3d 67d7 b6bc b01e 073d
000000c0: 8e9b 87bc d5a3 30bd ab99 8cbd 68f0 4d3d
000000d0: a564 003e 3e3e 363c 156f a13c c28f 9ebb
000000e0: c9d8 a53d 5bf0 57bc 8778 fc3c 1ecb 0dbd
000000f0: eb08 9ebd 8ce7 76bd 8c8b 90bd 094e 073e
00000100: 8e50 0d3e 3105 083d e49e ce3c f6ea 0abb
00000110: f6c1 2ebd 95ca 253d c498 a7bd 4035 bfbd
00000120: f2ce 09bd 4ffe f6bc 1702 a03c 609f 093e
00000130: 3d80 4e3b 94b3 863d 3c27 34bd 6572 a13d
00000140: 04a3 8a3d d157 5e3d ed9d f3bc 8262 73bd
00000150: a9ec 16bd e7d6 083e 723e 6cbd fc2f 55bd
00000160: 6970 8e3d 00fd b4bd b702 6c3d c76b a5bd
00000170: 31dd 8b3d 72ec 9abd a51d 19bd 1ace a6bd
00000180: 4367 a7bd 704c 553c 2122 e33d 2563 ffbc
00000190: d7f5 083e f0cc c5bd 8a0d a33d e2f6 d9bd
000001a0: 6903 4c3d ac7d 953d 4e50 25bd 8815 e53d
000001b0: 798b e63b 99d2 2bbd fe46 b73c c0fd a4bc
000001c0: 9258 6bbd fc28 99bd 8b70 243d b96b 083e
000001d0: 3aae 69bd 6b7f 99bd 866e a13d 56ea c1bd
000001e0: 2406 ff3d 0c85 cd3d fc0b 053e a4cb 983d
000001f0: bfa5 f3bc fb67 43bc 2495 753c 16a5 94bd
00000200: 673b ca3d 5e28 c93b ea63 913d f3fa e63d
00000210: 23fd cb3d 8aaa 7abd 3731 863d 68e1 1fbd
00000220: 3e21 f03d 5417 613d 935b a83c d314 f73c
00000230: 93e2 043e 0121 843d fbc1 0b3d 9c98 f1bc
00000240: 1f41 49bd 681d 673d 6a07 99bc be53 cabc
00000250: 505f ca3c b1a2 ff3d ee64 f1bc 44c2 9fbd
00000260: 7525 963d a137 b93d 5871 083d 855a df3d
00000270: d2ab 5d3d 8573 cbbd 66f8 023e 8de5 c6bd
00000280: 34a2 9abd dd43 2fbd 6d2b f6bd 2516 083e
00000290: 5998 f3bd 026c ff3c cc86 0c3c 5d8b f2bd
000002a0: 79a7 4fbd cafd 9cbc 9536 793d 4683 d5bd
000002b0: 841f 793d 8520 573d c961 c2bd db7b 19bd
000002c0: 9703 3c3c a31d c7bd 0d10 4a3d 4440 8ebd
000002d0: e0ec 8fbd 7acd 163d 43b5 e8bd 604d 95bd
000002e0: 28e7 9f3d 3f58 f3bd 87d7 ea3c 8c37 a63b
000002f0: c4e9 a63c 83dd d43d e6ad c33d 7948 d13d
00000300: 4312 d2bd 8fce f63d 9cd6 70bd 03ac 123c
00000310: feee f93d e650 87bd 7326 173d f583 80bd
00000320: 9c22 a8bd 2268 a73d ecfe 0e3e 86e3 e53d
00000330: 143e b1bd d394 9ebd e775 36bd d82f f13c
00000340: a109 15bc ca29 8a3c 65bb 3bbd ff55 c33d
00000350: eea1 43bc 4097 853b 2c59 50bb 009d 083c
00000360: c76e dbbb f64f cfbd dd5c 9f3d 2360 37bc
00000370: 0b61 61bd 9a53 cc3d 1440 aebb 62fd c0bd
00000380: 37d5 f63d e602 f73b 5955 783d c4a7 b23c
00000390: ea4a 92bd 1657 86bd dfa3 5fbd 3cf2 21bd
000003a0: 5096 c93d 1238 93bd 17ed 8cbd acca 30bd
000003b0: 59e4 2d3d 662a 80bc e511 87bc 228d abbd
000003c0: d479 073e cac4 36bc 8db1 b93d 9baf b83d
000003d0: 79f0 6fbd 85f1 9a3d 198e c63d 8d42 233d
000003e0: 2b5b 9bbc 0ebc f43d c9a7 8fbc a366 083e
000003f0: 45b2 a73d 8ea6 e3bc f0b1 e83d 80e1 1f3d

lstm.weight_ih_l1 f4 [256, 64]
0.14585972 -0.052182272 -0.055674877 -0.12364382 -0.026153136 -0.14505434 -0.02230198 -0.0097310105
0.04948966 0.026032131 -0.013309562 -0.09472198 0.05008517 -0.03361723 -0.014364235 -0.06471119
0.051744144 0.0873398 0.023861207 0.050447702 0.037663814 0.053793594 -0.031945687 -0.16148405
0.15531537 -0.055649534 0.066853814 0.07494039 -0.053009585 -0.089522734 0.047762178 -0.08391687
-0.04409252 0.058559585 -0.12862487 0.12841207 -0.1409963 0.11928492 -0.101198666 -0.09694095
0.04625712 0.07321047 -0.085396975 0.15268603 -0.039819583 -0.06966668 0.07096038 0.07660546
-0.15036212 0.16346276 -0.07174291 0.116440006 -0.07898565 -0.10674647 -0.023656838 0.013865868
-0.043813024 -0.15028496 0.07690774 -0.04924444 -0.024997504 -0.06544339 0.0464301 0.074094884
0.003687454 0.009363757 0.044901796 -0.038861528 0.053305585 0.06686274 0.129612 0.08318709
-0.09189394 -0.088590406 0.0061039617 -0.08165659 -0.06637203 0.03797057 -0.07330265 0.10040156
-0.09648052 0.082161784 -0.03206905 0.061703496 0.020832708 0.0417448 0.048958693 -0.08743424
0.12576 0.07971838 -0.07970048 0.032771878 0.005717128 0.012795272 -0.09192859 -0.11240143
-0.0860845 0.03251904 0.09484076 -0.063179046 -0.10780778 -0.053577177 -0.10175924 0.09557868
0.11487419 0.13145311 0.03224041 0.035798803 -0.12584105 -0.06639951 0.082395166 0.0034437568
0.061705127 -0.11204823 -0.043402076 -0.13494584 0.10797365 0.069033265 -0.12513469 0.01099495
-0.06286227 0.00019630413 0.10192713 0.016561603 0.021387547 0.09059028 -0.047989402 -0.045733623
0.07789649 -0.05133793 -0.054199878 0.0064246426 0.09639174 -0.006247997 0.05116004 0.09369604
0.047402024 0.10849313 0.098470375 -0.109568655 0.052758504 -0.06786032 0.09721249 0.055430613
0.041593634 0.12593393 0.009070265 0.052267414 0.07412956 0.024855137 -0.11184674 -0.023685789
0.05679248 -0.038844384 0.09990609 -0.029659055 0.089615494 -0.0064617028 -0.07941213 -0.082497545
-0.030665776 -0.10259565 -0.13818026 -0.06699675 -0.059591226 0.1472433 0.028129276 0.015216936
0.034965735 -0.009994209 -0.120080106 0.120790705 0.040771604 0.14195278 -0.09538879 -0.12749226
0.0110403 0.117667034 -0.022338111 0.102628194 0.022381114 -0.043167494 0.09137065 -0.0503361
0.031416193 0.0013689224 0.0763895 0.04882272 0.12368079 0.07663406 -0.0657419 -0.08852886
0.11985536 -0.10979681 0.026993098 0.13119134 0.004341481 -0.014735086 -0.025020622 -0.05712834
0.05361471 -0.0024538503 -0.0694065 -0.028236749 0.08642398 -0.008468694 -0.028294211 -0.13722363
-0.10701056 0.11707684 0.101432435 0.009826216 0.07685702 0.123326644 -0.06837105 -0.07529769
0.13766567 0.04656496 0.13112384 0.1332883 0.027984923 -0.06674499 0.015996201 0.057836477
-0.11110915 -0.039019614 -0.12136285 -0.06935313 0.08288005 0.083344154 -0.06007247 0.038008858
0.07432223 0.15056421 -0.025138194 -0.10213748 0.1302072 0.031629343 -0.11715053 -0.018049821
-0.007786924 0.08388758 -0.025124779 0.04588833 -0.069232345 -0.017812753 -0.07365677 0.07455101
0.055396516 -0.08875954 0.020929534 -0.044754308 0.0136689255 0.10543321 -0.097378604 0.026066013
00000000: 405c 153e 14bd 55bd 570b 64bd f938 fdbd
00000010: 1a3f d6bc 2089 14be a4b2 b6bc d16e 1fbc
00000020: abb5 4a3d 5641 d53c 5910 5abc 99fd c1bd
00000030: 1b26 4d3d 38b2 09bd f857 6bbc 4d87 84bd
00000040: abf1 533d 36df b23d 9478 c33c 40a2 4e3d
00000050: 5f45 1a3d ac56 5c3d 7bd9 02bd 135c 25be
00000060: fe0a 1f3e c4f0 63bd a7ea 883d 597a 993d
00000070: 9420 59bd b257 b7bd 46a2 433d 9cdc abbd
00000080: 5c9a 34bd 2ddc 6f3d 3db6 03be 747e 033e
00000090: 5661 10be a74b f43d 3f41 cfbd fa88 c6bd
000000a0: 1b78 3d3d 5fef 953d 9ce4 aebd ba59 1c3e
000000b0: dc19 23bd 68ad 8ebd ad53 913d 53e3 9c3d
000000c0: 87f8 19be c862 273e f2ed 92bd 1978 ee3d
000000d0: 3ac3 a1bd e59d dabd fccb c1bc aa2d 633c
000000e0: 4975 33bd 4de4 19be ce81 9d3d 8ab4 49bd
000000f0: 91c7 ccbc 2f07 86bd 7d2d 3e3d 0fbf 973d
00000100: 36a9 713b 726a 193c f2ea 373d 442d 1fbd
00000110: f556 5a3d 55ef 883d 02b9 043e fe5d aa3d
00000120: e432 bcbd e36e b5bd be03 c83b 923b a7bd
00000130: 0fee 87bd 0787 1b3d b31f 96bd 559f cd3d
00000140: 9497 c5bd 7044 a83d d65a 03bd cebc 7c3d
00000150: 5ba9 aa3c 98fc 2a3d e988 483d b910 b3bd
00000160: 3bc7 003e 6443 a33d 013a a3bd ce3b 063d
00000170: bf56 bb3b 43a3 513c 0e45 bcbd b932 e6bd
00000180: 124d b0bd af32 053d df3b c23d 0464 81bd
00000190: 53ca dcbd be73 5bbd 2667 d0bd c1be c33d
000001a0: 2943 eb3d a59b 063e 850e 043d c4a1 123d
000001b0: 7adc 00be 77fc 87bd ccbe a83d a7b0 613b
000001c0: 84be 7c3d 8b79 e5bd 60c6 31bd 3e2f 0abe
000001d0: 4a21 dd3d 5061 8d3d 4f23 00be 2a24 343c
000001e0: efbd 80bd fdd6 4d39 2cbf d03d 33ac 873c
000001f0: f034 af3c 6687 b93d 8990 44bd 2e53 3bbd
00000200: 3288 9f3d b947 52bd b100 5ebd cf85 d23b
00000210: 0869 c53d ffbb ccbb 318d 513d b6e3 bf3d
00000220: a028 423d a531 de3d d6aa c93d 8865 e0bd
00000230: 4d19 583d 5afa 8abd 5817 c73d 360b 633d
00000240: 165e 2a3d d3f4 003e 739b 143c 5b16 563d
00000250: 3dd1 973d 009d cb3c e70f e5bd b308 c2bc
00000260: 3b9f 683d 4a1b 1fbd 909b cc3d 8cf7 f2bc
00000270: 5488 b73d b1bc d3bb d4a2 a2bd 79f4 a8bd
00000280: cb36 fbbc ab1d d2bd 207f 0dbe 9835 89bd
00000290: ee15 74bd f3c6 163e 5e6f e63c 7550 793c
000002a0: 3b38 0f3d c0be 23bc 8fec f5bd 1e61 f73d
000002b0: 2000 273d 125c 113e 335b c3bd 558d 02be
000002c0: 60e2 343c 6afb f03d 6afe b6bc bb2e d23d
000002d0: 9958 b73c 66d0 30bd 8920 bb3d 3a2d 4ebd
000002e0: 44ae 003d 6a6d b33a 1972 9c3d 55fa 473d
000002f0: 5b4c fd3d 51f2 9c3d b0a3 86bd 9e4e b5bd
00000300: ba76 f53d 26dd e0bd a120 dd3c 0657 063e
00000310: fb42 8e3b 6e6b 71bc 0cf8 ccbc 68ff 69bd
00000320: 199b 5b3d c7d0 20bb ff24 8ebd c150 e7bc
00000330: 0eff b03d 47c0 0abc 43c9 e7bc 5a84 0cbe
00000340: 5a28 dbbd fbc5 ef3d cfbb cf3d 23fe 203c
00000350: 3767 9d3d ae92 fc3d 1f06 8cbd ad35 9abd
00000360: 3bf8 0c3e e6ba 3e3d 5445 063e ba7c 083e
00000370: a340 e53c 99b1 88bd 770a 833c f1e5 6c3d
00000380: 328d e3bd 08d3 1fbd 168d f8bd 0409 8ebd
00000390: 04bd a93d 57b0 aa3d 8d0e 76bd 2daf 1b3d
000003a0: 4136 983d 812d 1a3e 9dee cdbc 752d d1bd
000003b0: 0955 053e c58d 013d 9eec efbd 38dd 93bc
000003c0: 7429 ffbb 40cd ab3d 7bd2 cdbc 67f5 3b3d
000003d0: b0c9 8dbd 0dec 91bc 5cd9 96bd 33ae 983d
000003e0: 75e7 623d 90c7 b5bd 6a74 ab3c 4b50 37bd
000003f0: a1f3 5f3c 5eed d73d 6f6e c7bd 6488 d53c

lstm.weight_hh_l1 f4 [256, 64]
0.0010762556 0.084168345 0.0488122 0.008539657 -0.0038155639 0.015334544 -0.009321119 -0.0023742702
0.1416603 -0.027607854 0.12641817 -0.037085306 -0.14190376 0.042131603 0.07870073 0.09798504
0.047333766 0.10928731 0.089147806 0.005989207 0.100905925 -0.06501564 0.1080596 0.042895734
0.14062886 -0.002051237 0.009374052 -0.11435469 0.08132157 -0.016142257 0.029826904 -0.00820738
0.11856908 0.06598466 0.061907962 0.15990733 0.04152011 0.10168756 0.09839726 -0.03023727
0.10750655 -0.016354265 0.0284719 -0.12739718 -0.04646318 -0.020295339 0.13013192 0.03132601
0.06378726 0.08299359 -0.15998188 0.15157107 -0.04923879 -0.06304509 -0.13904011 0.13845356
-0.089966424 0.031308368 0.07548867 -0.040629946 -0.12728229 0.055625293 -0.03392539 -0.0842411
0.07549481 0.031650133 -0.04764514 0.025851678 -0.028369851 -0.06135827 -0.075596474 -0.06967581
-0.013996037 0.005907397 0.10896006 0.10995844 0.037651166 -0.017673982 -0.02156504 -0.13105898
0.12213072 -0.11807823 -0.11911116 0.086454555 -0.08129031 -0.04203335 0.008518735 0.05420311
0.022236235 -0.101117365 0.10464785 0.07798014 -0.10181884 0.030924028 -0.07744915 0.04857061
-0.07781141 -0.036428813 -0.11199172 0.065283015 -0.08078589 -0.04643385 -0.09471993 0.005934709
0.06645942 -0.043808974 -0.060603704 0.08661295 0.070732355 0.036238886 -0.015934331 -0.07905058
0.038240965 0.04805966 -0.014332937 0.086835794 -0.05392319 -0.028681727 0.11224715 0.029749785
-0.10950548 -0.076997675 -0.06367667 0.034347516 0.11287466 -0.004931742 -0.015420336 -0.08091142
0.10871317 0.03557991 0.027494678 0.09809414 0.083557576 0.14145856 -0.081810676 0.118690535
0.13688123 -0.005617913 -0.08196362 -0.11528364 -0.12698907 -0.0610934 0.014009401 -0.057680454
-0.15369262 0.0054943054 0.08223031 0.06813191 0.078706376 -0.09260245 -0.003141661 -0.14946957
0.10605417 0.050400533 0.07605207 -0.045612402 -0.13363634 -0.09792851 -0.0394223 -0.080368586
-0.098293394 0.13323854 -0.032686315 0.025147466 0.017198993 0.093035445 0.034543406 -0.059952296
-0.07966582 -0.066118605 0.11841816 -0.07551653 -0.06420161 -0.09008683 0.07621922 -0.05002383
-0.09167144 -0.019856473 -0.13026108 -0.07282021 0.027576856 -0.064210415 -0.10374874 -0.028391244
-0.014698033 -0.086078346 -0.035354275 -0.009601213 -0.11527702 0.14810747 0.032484617 -0.002946644
-0.021391835 0.09572242 0.067993775 -0.0812948 -0.038712606 -0.0106641045 0.10330584 -0.10562304
0.0064057973 -0.0013458969 0.028734898 0.0151132 -0.019760331 -0.021187292 -0.015607212 -0.019312205
0.047495443 0.12682232 -0.08440881 -0.030238606 0.05097621 0.06802499 -0.0130437035 -0.12982528
0.06936524 -0.06748521 0.022691896 0.07306354 -0.023682095 0.037435677 -0.0924908 0.05327049
-0.01526099 0.13371007 -0.010345838 -0.03899674 0.08036356 0.112035625 0.053871278 -0.004892195
-0.055370912 -0.07668008 0.10894698 0.097996496 0.020049121 0.0089973165 0.1020321 0.1242803
-0.00887584 -0.07246667 0.070101015 0.08100588 0.11033804 -0.10827896 0.0024631196 -0.01229279
0.03461057 -0.049565904 0.06974838 0.021188509 -0.04323372 0.13717045 -0.073820956 0.0028378677
00000000: 2511 8d3a 7460 ac3d 4def 473d ebe9 0b3c
00000010: 8a0e 7abb bd3d 7b3c 9bb7 18bc a599 1bbb
00000020: 660f 113e de29 e2bc c473 013e c3e6 17bd
00000030: 384f 11be 3092 2c3d d92d a13d 61ac c83d
00000040: 0de1 413d 06d2 df3d 2093 b63d 1c41 c43b
00000050: c4a7 ce3d eb26 85bd 5a4e dd3d 70b3 2f3d
00000060: 0301 103e 0c6e 06bb a095 193c cb32 eabd
00000070: ec8b a63d c43c 84bc 8d57 f43c 3f78 06bc
00000080: 59d4 f23d f722 873d 3493 7d3d bfbe 233e
00000090: fe10 2a3d 9141 d03d 8184 c93d 27b4 f7bc
000000a0: 652c dc3d 61f9 85bc e73d e93c 6874 02be
000000b0: 2d50 3ebd 6942 a6bc 4d41 053e b44f 003d
000000c0: e5a2 823d 8bf8 a93d 4ad2 23be 7235 1b3e
000000d0: 9dae 49bd c91d 81bd 8860 0ebe c5c6 0d3e
000000e0: 5140 b8bd 343d 003d ce99 9a3d 966b 26bd
000000f0: 4a56 02be 59d7 633d 5af5 0abd 9986 acbd
00000100: 069d 9a3d 92a3 013d 8d27 43bd e6c6 d33c
00000110: e467 e8bc cf52 7bbd 53d2 9abd 31b2 8ebd
00000120: a24f 65bc d692 c13b 7426 df3d e431 e13d
00000130: 1c38 1a3d 07c9 90bc 2ba9 b0bc 5334 06be
00000140: ac1f fa3d 00d3 f1bd 8df0 f3bd 160f b13d
00000150: 897b a6bd 292b 2cbd 2a92 0b3c 1504 5e3d
00000160: c428 b63c 9f16 cfbd 9d51 d63d 0db4 9f3d
00000170: 6586 d0bd 6354 fd3c a99d 9ebd faf1 463d
00000180: 975b 9fbd 6136 15bd ea5b e5bd 1ab3 853d
00000190: 1373 a5bd 6c31 3ebd 86fc c1bd f377 c23b
000001a0: e01b 883d 0a71 33bd 973b 78bd 2162 b13d
000001b0: 20dc 903d 3a6f 143d b788 82bc 45e5 a1bd
000001c0: 8fa2 1c3d 35da 443d b2d4 6abc f7d6 b13d
000001d0: 90de 5cbd f1f5 eabc d5e1 e53d d2b5 f33c
000001e0: 6944 e0bd f5b0 9dbd ea68 82bd fbaf 0c3d
000001f0: d42a e73d 739a a1bb 94a5 7cbc e3b4 a5bd
00000200: 03a5 de3d 3dbc 113d 853c e13c 95e5 c83d
00000210: 3c20 ab3d 83da 103e 5b8c a7bd 0614 f33d
00000220: 982a 0c3e 7816 b8bb 8bdc a7bd d419 ecbd
00000230: 6c09 02be 133d 7abd b087 653c 5742 6cbd
00000240: 9961 1dbe 9309 b43b 5d68 a83d be88 8b3d
00000250: cf30 a13d 5aa6 bdbd 53e4 4dbb 8d0e 19be
00000260: ee32 d93d ca70 4e3d 30c1 9b3d 12d4 3abd
00000270: f7d7 08be be8e c8bd 4779 21bd 4998 a4bd
00000280: 0c4e c9bd af6f 083e 16e2 05bd 0f02 ce3c
00000290: e7e4 8c3c 5e89 be3d 637d 0d3d 8a90 75bd
000002a0: d527 a3bd 3169 87bd 3885 f23d 69a8 9abd
000002b0: 227c 83bd 727f b8bd d318 9c3d cae5 4cbd
000002c0: 3cbe bbbd 0baa a2bc 2963 05be c322 95bd
000002d0: dce8 e13c c080 83bd 387a d4bd c194 e8bc
000002e0: 05d0 70bc d849 b0bd a5cf 10bd 684e 1dbc
000002f0: 5c16 ecbd 7ca9 173e 970e 053d 7c1c 41bb
00000300: ee3d afbc 1e0a c43d 5240 8b3d e37d a6bd
00000310: 1c91 1ebd 7fb8 2ebc 0392 d33d e450 d8bd
00000320: b9e7 d13b ce68 b0ba 7365 eb3c 5b9d 773c
00000330: 6be0 a1bc f990 adbc 64b5 7fbc a134 9ebc
00000340: 958a 423d b6dd 013e 87de acbd f4b6 f7bc
00000350: 6ecc 503d b050 8b3d 42b5 55bc ebf0 04be
00000360: 5d0f 8e3d b035 8abd 5be4 b93c 56a2 953d
00000370: f400 c2bc 2756 193d d16b bdbd 2832 5a3d
00000380: 3b09 7abc 4beb 083e 9781 29bc 0cbb 1fbd
00000390: a695 a43d ef72 e53d 21a8 5c3d b54e a0bb
000003a0: 9ccc 62bd 720a 9dbd 981f df3d 63b2 c83d
000003b0: 0e3e a43c 7b69 133c 35f6 d03d ac86 fe3d
000003c0: f96b 11bc 6869 94bd 1f91 8f3d 69e6 a53d
000003d0: e9f8 e13d 5cc1 ddbd 4a6c 213b b367 49bc
000003e0: d0c3 0d3d 9e05 4bbd 3dd8 8e3d 8693 ad3c
000003f0: d715 31bd 6976 0c3e 712f 97bd 85fb 393b

lstm.bias_ih_l1 f4 [256]
-0.07755284 0.0075765387 0.09472617 0.103383385 -0.03903209 -0.068631314 0.052615296 0.08210577
0.10773231 -0.047031246 -0.08206058 -0.101554155 0.11277495 0.13589808 -0.006663535 -0.07198943
0.075667895 0.10524171 -0.00315362 -0.07753649 0.06094235 0.060273215 -0.10277326 -0.025924997
0.048130434 -0.10819037 -0.10685394 0.08656415 0.018735409 0.12977858 -0.067706846 0.046489436
0.038864393 0.13286464 0.017911779 -0.06325129 -0.005449582 -0.09317514 0.011238114 -0.044033904
-0.08913061 -0.022713026 0.098758765 0.10939711 0.1358862 0.034228142 -0.07134061 -0.11217455
0.0509415 0.124476604 -0.107042 0.115950786 0.05170172 0.03549982 -0.05717132 0.12726425
-0.06830083 0.1298581 0.045794923 -0.08804441 0.07441992 -0.08461524 0.07387262 -0.07326673
-0.027077585 -0.03588598 0.06713415 -0.023535706 -0.016626082 0.047242194 0.016063284 0.07611607
0.0037619898 -0.07962729 0.078127235 -0.066715315 -0.007199221 -0.036846194 -0.11304551 -0.039570156
0.08642198 -0.038679566 -0.0054264404 0.10615168 -0.026762119 -0.051221456 -0.045943167 0.07188863
-0.037528854 0.0072078696 -0.019155465 0.14004421 0.123424396 0.04128125 -0.035530034 0.05264814
0.025329871 0.053707294 0.098004065 0.09430952 0.07022007 -0.017918717 0.11480638 -0.07071287
0.028640322 -0.08650101 0.09334706 -0.06127128 0.008417179 0.05042231 0.04569793 0.031415142
-0.044950858 -0.07074714 0.11525289 0.016901638 -0.083113 0.12628534 -0.05165576 0.1017021
0.006960877 0.12833019 -0.07813197 0.124589525 0.06666625 0.01984561 0.12379062 0.045844372
0.02071719 -0.112521656 0.11492033 0.06744716 -0.04062983 -0.03887309 0.10613437 0.100777596
0.05012567 -0.063192226 0.090157695 -0.045460477 -0.11741349 -0.040538024 0.0075678444 -0.041900765
-0.08365222 0.06594231 0.012449571 -0.010055706 -0.056278616 0.073822446 0.067794226 0.05702277
-0.09956088 0.10711473 -0.06724145 -0.08373231 -0.09943819 0.06561189 -0.09192882 -0.109042466
0.059733868 0.05662955 -0.021985011 0.024385026 0.078861065 -0.07587762 0.10552284 -0.10556467
-0.07765887 0.0888768 0.068390295 -0.020775937 0.09485307 -0.104343444 0.09948966 0.02179647
-0.006837738 0.033214554 0.074072644 -0.06949508 0.07652483 0.0837598 -0.027589248 -0.061235655
0.0072392826 -0.034159075 0.04781259 -0.093760386 0.11148769 0.117655426 0.11670219 -0.07577797
-0.05929919 0.02408351 -0.05682069 0.07654864 0.07089082 0.13412078 -0.035228554 0.09632447
0.044541266 0.116266176 0.08468591 0.012945517 0.027792891 0.13899305 0.10698401 0.09418495
0.039419625 0.15429573 0.09769449 0.101237856 -0.03843878 -0.1000412 0.1319777 0.018201647
0.13798812 -0.10894187 -0.10292576 -0.08678817 -0.0075430325 0.09665188 -0.094948016 -0.009917568
0.09278173 -0.011898446 0.0241094 -0.040849347 0.11467077 0.07265024 0.13031599 0.012537779
0.049973946 0.10389974 0.122751564 0.06784838 -0.09178114 -0.01653803 0.05687727 0.003628279
0.07235065 0.050814155 0.12130729 0.11897601 -0.013358541 0.037701607 -0.072081365 -0.036354825
-0.033032432 0.15049592 0.07195083 0.031791773 0.07126799 0.086532876 -0.04584797 0.10639528
00000000: 06d4 9ebd 9d44 f83b cbff c13d abba d33d
00000010: 1de0 1fbd 938e 8cbd 2383 573d 1227 a83d
00000020: c2a2 dc3d d6a3 40bd 610f a8bd a0fb cfbd
00000030: 8ef6 e63d de28 0b3e c859 dabb 326f 93bd
00000040: c5f7 9a3d f788 d73d f7ac 4ebb 74cb 9ebd
00000050: b09e 793d 0ce1 763d c97a d2bd a960 d4bc
00000060: 6b24 453d ea92 ddbd 3dd6 dabd 8c48 b13d
00000070: 007b 993c ade4 043e e3a9 8abd b56b 3e3d
00000080: 4530 1f3d ab0d 083e b9bb 923c e489 81bd
00000090: 6892 b2bb 9cd2 bebd 1120 383c e55c 34bd
000000a0: 1c8a b6bd ab10 babc 0942 ca3d 980b e03d
000000b0: c125 0b3e cf32 0c3d 071b 92bd c5bb e5bd
000000c0: 09a8 503d 97ed fe3d d638 dbbd 9b77 ed3d
000000d0: 2fc5 533d 4268 113d 792c 6abd 8f51 023e
000000e0: 4ee1 8bbd 86f9 043e 7593 3b3d a150 b4bd
000000f0: 7969 983d c14a adbd 874a 973d de0c 96bd
00000100: d0d1 ddbc 2dfd 12bd a17d 893d f4cd c0bc
00000110: 6c33 88bc 0881 413d 2697 833c bee2 9b3d
00000120: b78b 763b a213 a3bd 2c01 a03d 0aa2 88bd
00000130: 71e7 ebbb 09ec 16bd 6884 e7bd 5114 22bd
00000140: 02fe b03d 776e 1ebd 48d0 b1bb 0d66 d93d
00000150: 3b3c dbbc 97cd 51bd e72e 3cbd 593a 933d
00000160: dbb7 19bd fe2f ec3b eceb 9cbc c067 0f3e
00000170: eec5 fc3d 8716 293d f187 11bd 93a5 573d
00000180: 9780 cf3c 2efc 5b3d 5bb6 c83d 5a25 c13d
00000190: 8acf 8f3d 46ca 92bc 9b1f eb3d e9d1 90bd
000001a0: 1c9f ea3c 7127 b1bd be2c bf3d 98f7 7abd
000001b0: 35e8 093c a087 4e3d c12d 3b3d 2aad 003d
000001c0: 641e 38bd e0e3 90bd b509 ec3d 4e75 8a3c
000001d0: 2637 aabd f250 013e fd94 53bd 3149 d03d
000001e0: 1218 e43b fd68 033e a703 a0bd cb28 ff3d
000001f0: 5188 883d 4393 a23c f085 fd3d 4fc7 3b3d
00000200: 19b7 a93c c171 e6bd 5a5b eb3d bd21 8a3d
00000210: 776b 26bd 6439 1fbd fa5c d93d 7c64 ce3d
00000220: 9350 4d3d ed6a 81bd 99a4 b83d c434 3abd
00000230: 7c76 f0bd 330b 26bd aefb f73b 23a0 2bbd
00000240: db51 abbd c30c 873d 49f9 4b3c b0c0 24bc
00000250: 6884 66bd 3930 973d b3d7 8a3d b590 693d
00000260: 93e6 cbbd f85e db3d e3b5 89bd d87b abbd
00000270: 40a6 cbbd 875f 863d 2d45 bcbd a851 dfbd
00000280: 80ab 743d 63f4 673d e919 b4bc 1bc3 c73c
00000290: e981 a13d ba65 9bbd 5c1c d83d 4a32 d8bd
000002a0: 9d0b 9fbd 0a05 b63d 3610 8c3d 4c32 aabc
000002b0: 5442 c23d 04b2 d5bd 3cc1 cb3d 838e b23c
000002c0: 1b0f e0bb fc0b 083d 66b3 973d 7053 8ebd
000002d0: 0db9 9c3d 428a ab3d d902 e2bc 3dd2 7abd
000002e0: 8137 ed3b 63ea 0bbd 22d7 433d 7205 c0bd
000002f0: a853 e43d 54f5 f03d 8f01 ef3d 7b31 9bbd
00000300: b5e3 72bd c84a c53c d0bc 68bd 89c5 9c3d
00000310: 352f 913d f556 093e d14b 10bd c445 c53d
00000320: e770 363d f61c ee3d ce6f ad3d 6f19 543c
00000330: ebad e33c 3254 0e3e 6f1a db3d 0ae4 c03d
00000340: 7976 213d b3ff 1d3e 0c14 c83d cb55 cf3d
00000350: fb71 1dbd 67e2 ccbd 2a25 073e 9f1b 953c
00000360: c24c 0d3e ea1c dfbd beca d2bd ffbd b1bd
00000370: 8b2b f7bb 6cf1 c53d 1b74 c2bd 4c7d 22bc
00000380: 5904 be3d b3f1 42bc 1481 c53c a551 27bd
00000390: 82d8 ea3d a6c9 943d 8e71 053e 426b 4d3c
000003a0: 7bb1 4c3d 63c9 d43d 2c65 fb3d 17f4 8a3d
000003b0: c0f7 bbbd c37a 87bc 24f8 683d 6cc8 6d3b
000003c0: 942c 943d 8122 503d f56f f83d b2a9 f33d
000003d0: c8dd 5abc 006d 1a3d 659f 93bd cce8 14bd
000003e0: 044d 07bd 9a1b 1a3e f55a 933d 1738 023d
000003f0: f4f4 913d 2638 b13d 15cb 3bbd c5e5 d93d

lstm.bias_hh_l1 f4 [256]
0.05193003 -0.07355598 -0.11010543 0.030213917 -0.01581575 -0.08157451 0.016550103 0.062575236
-0.09084076 0.056836702 -0.10127463 -0.054338526 0.08384834 0.098960936 0.113735534 -0.07961193
-0.0535311 0.07444565 -0.0010943129 0.06039273 0.10109176 -0.062237695 0.12282448 0.12127004
0.13167669 -0.0056810444 -0.05045374 0.10317914 -0.084513225 -0.012141116 -0.034124684 -0.10977199
-0.014948252 0.083947636 -0.07857472 -0.0016464065 0.035105836 0.0712667 -0.077456996 -0.0506644
0.09641631 -0.0038336748 -0.02010326 0.11043182 0.08157481 -0.017932514 -0.0031967198 -0.0035132274
0.058870308 0.062097926 0.0670249 -0.09106741 0.09018569 0.094104506 -0.003512349 -0.06701154
-0.017975003 0.06274306 0.08325277 0.13577662 0.06948945 0.11693398 -0.03634424 -0.075489
0.094640695 -0.07939766 -0.064046346 0.062401067 0.055860125 -0.0755257 0.024637677 -0.02269093
0.044119064 -0.046242874 0.013824541 -0.08442856 -0.110808365 0.021539051 -0.073297024 0.105266325
-0.06959741 0.040038742 -0.039444167 0.04971229 -0.046958223 -0.1077267 -0.10029212 -0.06640293
0.020880805 -0.007886668 -0.09741901 -0.06708099 0.10420179 -0.030238329 -0.0942974 0.12091975
-0.06454779 0.033236068 -0.09583213 0.054668695 0.100827694 0.12868246 -0.113256514 -0.020501973
0.14473686 -0.06096078 -0.071584806 -0.09235465 0.07805487 -0.033573374 0.08227145 0.050786935
0.13970602 0.08298579 -0.024243401 -0.056724843 -0.04218158 -0.039583404 0.04871979 -0.08287086
0.114476405 -0.056836076 -0.0012579014 -0.08547961 -0.05379759 -0.0034322492 0.101694584 0.006599153
-0.05789562 -0.045857716 -0.0069845323 0.036244467 -0.05788223 -0.019610448 0.11149907 0.04290519
0.1053616 0.093018524 -0.026041234 -0.049446046 -0.06800703 0.06550705 0.09747134 -0.11855418
0.10773394 -0.047117505 0.04631993 0.104364164 0.065371834 0.005147951 0.048103858 0.003632979
0.08911506 0.09651922 0.10044284 0.040395968 0.0062863254 -0.0051317145 -0.038935307 -0.01835368
0.10713262 0.082501404 -0.09540114 0.017270057 0.039703015 0.04485478 -0.0085525885 -0.11674664
0.0040082065 0.053176545 -0.071529746 0.019656606 0.034430556 0.11448164 -0.078347966 0.014245861
-0.029689737 -0.0827521 -0.106895566 0.016298572 -0.10251386 0.07128553 0.037418332 -0.028849848
-0.103062466 0.037296467 -0.032968532 0.06395316 -0.027589109 -0.034104086 0.08902118 -0.030481864
-0.068230696 0.008826178 -0.04278307 -0.03664978 -0.0615007 0.046601105 -0.016103752 -0.085497186
-0.042254988 0.03776358 0.09746784 0.03703265 0.018740496 0.116911836 0.04492789 0.083811894
0.09168179 0.13368481 0.0053453743 0.11870717 0.10387376 -0.09155772 -0.10113667 0.1420738
-0.040319417 0.07417351 0.11380939 -0.058297634 0.04975716 -0.0011194492 -0.02936542 -0.010943702
-0.038936608 0.011747357 0.004633318 -0.021890916 0.11619806 0.0875537 0.12615475 -0.08425896
-0.0056316657 0.119326405 0.1119896 0.0983946 -0.023795212 0.013099866 -0.10894555 -0.045926206
0.021130249 -0.027809007 0.12995553 0.042542834 0.08479841 -0.08826153 0.09402492 0.13192303
0.06200272 -0.019271018 0.13090397 0.12322074 -0.0604351 -0.011964537 0.111604266 0.12204825
00000000: 95b4 543d 85a4 96bd f57e e1bd 2d83 f73c
00000010: 0890 81bc 8910 a7bd 1594 873c 7227 803d
00000020: b80a babd 9acd 683d 1369 cfbd 1392 5ebd
00000030: aeb8 ab3d 08ac ca3d 2dee e83d 940b a3bd
00000040: 6d43 5bbd f676 983d 0c6f 8fba 5e5e 773d
00000050: 3209 cf3d f4ec 7ebd 678b fb3d 6d5c f83d
00000060: 41d6 063e 0e28 babb 95a8 4ebd 964f d33d
00000070: 4515 adbd 88eb 46bc 53c6 0bbd 23d0 e0bd
00000080: 83e9 74bc bdec ab3d c8eb a0bd 3ccc d7ba
00000090: 23cb 0f3d 47f4 913d c6a1 9ebd 7985 4fbd
000000a0: ea75 c53d 643e 7bbb 98af a4bc 142a e23d
000000b0: b210 a73d 35e7 92bc 0f80 51bb 2d3e 66bb
000000c0: fe21 713d 655a 7e3d 5a44 893d 8d81 babd
000000d0: 46b3 b83d ddb9 c03d 702f 66bb 593d 89bd
000000e0: 5040 93bc 6f7f 803d 6e80 aa3d 0709 0b3e
000000f0: 7c50 8e3d 157b ef3d b3dd 14bd fa99 9abd
00000100: fbd2 c13d 3e9b a2bd bb2a 83bd 4398 7f3d
00000110: 96cd 643d 38ad 9abd f4d4 c93c 54e2 b9bc
00000120: 31b6 343d 2b69 3dbd 5480 623c e2e8 acbd
00000130: 7fef e2bd aa72 b03c c01c 96bd df95 d73d
00000140: 1689 8ebd aaff 233d 3590 21bd 1d9f 4b3d
00000150: 4457 40bd d19f dcbd f465 cdbd 42fe 87bd
00000160: 390e ab3c 1537 01bc 9e83 c7bd c261 89bd
00000170: c067 d53d 5fb6 f7bc ff1e c1bd c6a4 f73d
00000180: a231 84bd 8b22 083d a343 c4bd 48ec 5f3d
00000190: c07e ce3d 56c5 033e 08f3 e7bd c1f3 a7bc
000001a0: e635 143e 03b2 79bd 0e9b 92bd 6f24 bdbd
000001b0: 3bdb 9f3d 3c84 09bd ef7d a83d f605 503d
000001c0: 180f 0f3e 74f4 a93d 199a c6bc 4f58 68bd
000001d0: 98c6 2cbd 3522 22bd 678e 473d 33b8 a9bd
000001e0: 9b72 ea3d f2cc 68bd 2be0 a4ba ef0f afbd
000001f0: dd5a 5cbd 96ef 60bb 4045 d03d b53d d83b
00000200: f523 6dbd 4dd5 3bbd 81de e4bb 1475 143d
00000210: eb15 6dbd 17a6 a0bc a059 e43d 5abd 2f3d
00000220: d3c7 d73d 7f80 be3d 6d54 d5bc f087 4abd
00000230: 4547 8bbd 8f28 863d 0e9f c73d 89cc f2bd
00000240: 9da3 dc3d 49fe 40bd f8b9 3d3d e1bc d53d
00000250: abe1 853d 25b0 a83b 8d08 453d 4617 6e3b
00000260: f581 b63d deab c53d fab4 cd3d 3e76 253d
00000270: 85fd cd3b f127 a8bb a17a 1fbd 755a 96bc
00000280: 5968 db3d 7ff6 a83d ac61 c3bd ef79 8d3c
00000290: a19f 223d a5b9 373d 2820 0cbc dd18 efbd
000002a0: 4657 833b a6cf 593d 307e 92bd e406 a13c
000002b0: 0e07 0d3d 5a75 ea3d e674 a0bd 7967 693c
000002c0: e437 f3bc ef79 a9bd 10ec dabd 9584 853c
000002d0: c9f2 d1bd 26fe 913d f743 193d 8456 ecbc
000002e0: 6a12 d3bd 2ec4 183d 030a 07bd e0f9 823d
000002f0: 8e02 e2bc bab0 0bbd bd50 b63d 1ab5 f9bc
00000300: 89bc 8bbd ac9b 103c 4d3d 2fbd 141e 16bd
00000310: 28e8 7bbd cde0 3e3d 04ec 83bc 2619 afbd
00000320: 9113 2dbd fcad 1a3d 389d c73d 8caf 173d
00000330: ab85 993c 796f ef3d 4f06 383d 92a5 ab3d
00000340: aac3 bb3d ace4 083e 4028 af3b bf1c f33d
00000350: c4bb d43d 9d82 bbbd be20 cfbd cb7b 113e
00000360: f925 25bd 48e8 973d e614 e93d 80c9 6ebd
00000370: 2ace 4b3d 7bba 92ba c08f f0bc 374d 33bc
00000380: fe7b 1fbd fd77 403c 17d3 973b 9454 b3bc
00000390: 40f9 ed3d 5b4f b33d b62e 013e f68f acbd
000003a0: d689 b8bb 6761 f43d ce5a e53d 1c83 c93d
000003b0: 2dee c2bc d2a0 563c d81e dfbd 1e1d 3cbd
000003c0: 5819 ad3c b7cf e3bc 1013 053e 6541 2e3d
000003d0: caaa ad3d 76c2 b4bd 2390 c03d d516 073e
000003e0: 90f6 7d3d 41de 9dbc b10b 063e 285b fc3d
000003f0: cc8a 77bd e806 44bc c790 e43d 6ff4 f93d
